checkpoints/text_classifier/model.pth (torch, 477300 bytes, 6 tensors)

layer1.weight f4 [256, 184]
0.053470388 -0.0078744665 0.06800403 0.03808792 -0.03106337 0.08741964 0.022167744 0.051382825
0.08740665 0.040278208 -0.036321435 0.061726965 0.05318579 0.086852685 0.04936884 0.034513723
-0.010499753 -0.060515612 -0.06986525 0.02798011 0.03421714 -0.03001083 -0.05689881 -0.043712817
0.054931663 0.045686044 -0.066821225 0.041574378 0.04873596 0.10350219 0.012618652 -0.048722833
0.011210446 0.105864696 -0.03013596 -0.0076351166 -0.03374909 0.005140343 0.101123996 0.014948316
-0.06432909 -0.03191937 -0.02762656 -0.011723316 -0.009942904 0.03766218 0.023923256 -0.029244233
0.061772272 -0.025730483 -0.017818758 0.013818443 -0.011202467 0.004250972 0.063557945 0.019671563
0.091663755 0.026892014 -0.019438542 -0.06169042 -0.024614044 -0.01467729 0.05890133 0.06964387
-0.032367792 -0.033657167 -0.07131785 -0.021649476 -0.04673215 -0.05642628 0.040958084 0.030430533
-0.003960632 0.04765892 0.037073266 -0.030137258 -0.0020818263 0.02797057 -0.07189915 -0.061575573
-0.010909617 -0.07623822 -0.0209549 0.031704746 0.0870447 0.014925128 -0.054615557 0.0104127815
-0.01835318 -0.026748689 0.033400554 0.07453515 -0.0006836355 -0.0070219412 0.016730405 0.04085659
0.08106712 0.049875975 -0.054266818 0.07171011 -0.061681356 -0.02716966 0.0123582855 -0.032732837
0.05776754 0.031025534 -0.030108238 -0.056707084 -0.00036577135 0.020809846 0.050747946 -0.036830153
-0.03031668 -0.037497442 0.077020325 0.09987844 0.059450492 0.043072674 0.04323473 -0.047107324
0.01864481 -0.04650262 -0.0068990956 0.10705957 0.005365908 -0.047270767 -0.024312202 0.04226274
-0.02060321 -0.068550006 -0.02766706 0.016090205 -0.023603434 0.061692163 -0.025891384 -0.05745817
0.017350314 0.06812113 -0.051083513 -0.05561035 -0.054805174 0.072683945 0.085720144 0.09856462
0.054990817 0.099370725 -0.06650551 0.06309833 -0.004442729 -0.06255705 0.04116592 -0.040682442
0.02085277 -0.019817244 0.09785535 0.05183151 0.055866454 -0.037228655 0.0059384704 0.07218027
-0.054535776 -0.014734352 0.03492171 -0.0092411265 -0.0052278456 0.0037136897 -0.051934283 0.0029625334
0.035125703 0.048705272 -0.069517605 -0.03650052 -0.048435196 0.018740874 -0.021356802 -0.0040988433
0.02696479 0.034904722 0.05152756 -0.0022204285 -0.030372817 -0.033236366 0.07524395 0.11437967
0.02421739 0.030141545 0.06469628 0.08105673 0.07895172 0.07993218 -0.013947644 -0.035661552
0.027571637 -0.019817652 -0.07242207 0.07711765 0.09786733 -0.011531041 0.04748372 -0.022637352
-0.09976776 0.049587652 -0.07570839 0.06784507 -0.01823862 -0.026971638 -0.023768412 -0.014725718
-0.040462494 -0.06142724 0.09339161 0.023530925 0.045146603 0.009452631 -0.08771818 -0.021398652
0.060747735 0.07076852 -0.0039254045 0.06526028 -0.030085739 -0.066464506 0.101180695 -0.0938909
0.009328983 0.042013686 -0.061228566 -0.07021198 0.061726667 0.025131064 -0.081233636 0.018527417
0.06574951 0.07516471 0.013826736 -0.036026742 0.04754504 -0.04354812 0.064114824 0.0054518
0.034303512 0.011886773 0.037559647 -0.026557697 -0.08234853 -0.031898614 -0.004778328 0.0057922835
0.048493374 -0.035653684 -0.054591045 0.0994857 -0.065541916 0.09723669 -0.020334033 -0.05300888
00000000: c403 5b3d e803 01bc b245 8b3d 1402 1c3d
00000010: 9c78 febc 1109 b33d 2199 b53c cc76 523d
00000020: 4202 b33d c3fa 243d c9c5 14bd 6ad5 7c3d
00000030: 58d9 593d d2df b13d fb36 4a3d 435e 0d3d
00000040: 2807 2cbc 38df 77bd 8315 8fbd 8b36 e53c
00000050: 4627 0c3d 46d9 f5bc ba0e 69bd 360c 33bd
00000060: 0600 613d 4a21 3b3d 91d9 88bd e549 2a3d
00000070: 5c9f 473d f5f8 d33d 76be 4e3c 9891 47bd
00000080: 05ac 373c 97cf d83d b0df f6bc 0030 fabb
00000090: 7c3c 0abd 5370 a83b 191a cf3d c8e9 743c
000000a0: f8be 83bd e3bd 02bd 1851 e2bc 2713 40bc
000000b0: 90e7 22bc a843 1a3d b4fa c33c 9a91 efbc
000000c0: ec04 7d3d bcc8 d2bc a5f8 91bc c066 623c
000000d0: 8d8a 37bc bd4b 8b3b ab2a 823d 4226 a13c
000000e0: 35ba bb3d a44c dc3c 943d 9fbc 18af 7cbd
000000f0: 64a3 c9bc 0479 70bc 8542 713d 72a1 8e3d
00000100: 1794 04bd 19dc 09bd 180f 92bd 3e5a b1bc
00000110: 366a 3fbd 3e1f 67bd aac3 273d 7449 f93c
00000120: 30c8 81bb 0036 433d 23da 173d 69e2 f6bc
00000130: 406f 08bb 8922 e53c dd3f 93bd ab36 7cbd
00000140: 40be 32bc c922 9cbd 9ca9 abbc d6dc 013d
00000150: 7e44 b23d 8688 743c 90b4 5fbd 5f9a 2a3c
00000160: 6859 96bc 1120 dbbc 05cf 083d e2a5 983d
00000170: 0036 33ba 5018 e6bb 340e 893c 3d59 273d
00000180: 8506 a63d c04a 4c3d e246 5ebd c0dc 923d
00000190: 97a5 7cbd e892 debc 687a 4a3c de12 06bd
000001a0: a89d 6c3d 4329 fe3c 8da5 f6bc b045 68bd
000001b0: 00c5 bfb9 6979 aa3c 14dd 4f3d 37db 16bd
000001c0: b05a f8bc eb96 19bd d5bc 9d3d 118d cc3d
000001d0: 5c82 733d f96c 303d e616 313d 9cf3 40bd
000001e0: 00bd 983c 8879 3ebd cf11 e2bb 0c42 db3d
000001f0: 80d4 af3b fe9e 41bd 622a c7bc b21b 2d3d
00000200: 10c8 a8bc f263 8cbd 08a6 e2bc 9bcf 833c
00000210: fd5b c1bc ecb0 7c3d 2b1a d4bc 4259 6bbd
00000220: 3f22 8e3c 1783 8b3d f23c 51bd aec7 63bd
00000230: 647b 60bd 52db 943d 0b8e af3d 3fdc c93d
00000240: 0d3e 613d e182 cb3d 0a34 88bd b239 813d
00000250: 5094 91bb e91d 80bd 999d 283d a2a2 26bd
00000260: 6ed3 aa3c c657 a2bc 6368 c83d 474d 543d
00000270: 39d4 643d 137d 18bd 8097 c23b 40d3 933d
00000280: e860 5fbd 5a68 71bc 110a 0f3d 1868 17bc
00000290: 594e abbb 6061 733b 0bb9 54bd 1027 423b
000002a0: f8df 0f3d 2e7f 473d 3f5f 8ebd 9281 15bd
000002b0: fc63 46bd 7686 993c 76f4 aebc 974f 86bb
000002c0: 43e5 dc3c 41f8 0e3d 900e 533d 9c84 11bb
000002d0: 6ad0 f8bc db22 08bd 8019 9a3d e33f ea3d
000002e0: 8c63 c63c 67eb f63c 7c7f 843d 1201 a63d
000002f0: 70b1 a13d 7cb3 a33d a984 64bc d911 12bd
00000300: eadd e13c a158 a2bc 0652 94bd dcef 9d3d
00000310: ab6e c83d b1ec 3cbc 4a7e 423d f871 b9bc
00000320: 0a53 ccbd 6c1c 4b3d 000d 9bbd 5bf2 8a3d
00000330: 2969 95bc a0f3 dcbc f9b5 c2bc 2344 71bc
00000340: 00bc 25bd 219b 7bbd 1a44 bf3d edc3 c03c
00000350: a5eb 383d 35df 1a3c 97a5 b3bd 3a4c afbc
00000360: 9ed2 783d 16ef 903d aea0 80bb 2fa7 853d
00000370: 5e76 f6bc 8b1e 88bd d337 cf3d df49 c0bd
00000380: 97d8 183c 8b16 2c3d ceca 7abd 4ccb 8fbd
00000390: 1ad5 7c3d a9df cd3c d25d a6bd cfc6 973c
000003a0: aea7 863d f5ef 993d 8989 623c c790 13bd
000003b0: 96be 423d 835f 32bd a24e 833d 03a5 b23b
000003c0: d781 0c3d bdc0 423c 25d8 193d 878f d9bc
000003d0: 59a6 a8bd 1fa8 02bd 8593 9cbb 32cd bd3b
000003e0: fda0 463d 9909 12bd dc9a 5fbd 29bf cb3d
000003f0: d73a 86bd 0824 c73d 8f93 a6bc d71f 59bd

layer1.bias f4 [256]
-0.004298645 0.11613471 0.04212298 -0.044902403 0.027008744 0.07054359 0.004357484 0.06296692
-0.0050717974 0.059514303 -0.05141356 0.024756245 0.1217468 0.05028594 0.047118105 0.10107459
0.031654593 0.051320765 0.055473574 0.06522779 0.06401346 0.086106144 0.059889805 0.0445151
0.1143858 0.023164555 0.019356286 0.061077915 0.078839675 0.05653483 0.07081911 -0.012585867
0.10145833 -0.0005354474 0.025449203 0.09327849 -0.0034452102 0.083736956 0.029929914 -0.0037744634
0.09909073 0.049737006 0.061926812 0.063118 0.052693743 0.025956854 0.10187849 -0.07639724
0.039957613 0.07437566 0.054629017 0.059965663 -0.039504092 0.11784536 -0.07574929 0.0666981
0.08329364 0.10254362 0.05818794 0.089468606 0.068752944 0.039665967 0.103244096 0.06548325
-0.005006725 0.0882017 -0.0069895587 0.027636018 -0.07618701 0.055435475 0.040557034 0.019348774
-0.043216333 0.004448125 0.044293426 0.047696408 0.012934963 -0.07353988 0.015231875 0.0325297
0.0717416 0.10047978 0.020291915 0.069029436 -0.07127137 -0.008197836 0.103012204 0.051735077
0.06300917 0.023308812 -0.022134628 -0.023723042 0.1008519 0.09314092 0.0922161 0.0309561
0.057463128 -0.00014970398 0.04111332 -0.06060388 -0.020716574 0.042661693 0.084587134 0.08936223
0.053741187 0.044358857 0.120511815 0.08692485 0.003977526 -0.03407253 -0.056954183 -0.008347819
0.03796971 0.10547622 -0.07263587 0.10145757 0.060955815 0.09891162 0.0658264 0.026121678
0.031516016 0.020195182 0.05989669 -0.06844936 0.04698463 0.08919282 -0.055862088 0.018311135
0.016646132 0.068054765 0.056740653 0.060921688 0.109669246 0.09332758 -0.010891746 -0.0012910309
0.06426768 0.10653159 0.028126072 0.06241711 0.030050796 0.083924375 -0.061398067 0.037696104
0.10025271 0.10066287 0.07226331 -0.01411967 0.024166128 0.036794778 0.105190754 0.06992173
-0.053941056 0.10022006 0.08416892 -0.006342921 -0.06556433 0.1107112 -0.031382374 -0.06288967
-0.007046726 0.0429875 -0.014178738 0.017907847 0.07715509 0.0597852 0.1098196 -0.054725528
0.0100404695 0.08137103 0.016189603 -0.009396223 -0.023830315 -0.04317321 0.05588218 -0.004584497
0.050133664 0.087906 0.10912309 0.09962442 0.06546829 0.009518997 -0.013329107 0.015063214
0.12316345 0.061158203 0.084619254 -0.003091779 -0.059322912 0.037700735 -0.07986632 0.025493702
0.06068325 0.06715145 0.087666094 0.09128776 -0.00082905963 0.10272336 0.091891125 0.07099932
0.06532161 -0.032238055 0.046375755 0.012040405 0.072021194 0.0904936 0.050269097 -0.0721286
0.030486794 -0.050735343 -0.054375377 0.05568812 0.010346746 -0.06381722 -0.026594108 -0.065085106
0.07045881 0.03150991 0.008489024 0.07241299 0.11071154 -0.03556688 -0.005198245 0.0015106754
-0.025194703 0.061639905 0.076158844 0.06895598 0.038897004 0.027514229 0.038637515 0.06721381
0.04911298 0.054824356 0.04893659 -0.0045040315 0.018896546 0.034375552 -0.06428037 -0.049786378
0.09144541 0.031547725 0.013197619 0.00060754 0.048982058 0.11659763 0.0936806 0.07286266
0.06793778 0.07640357 0.103171885 0.1192698 0.09639989 0.030834138 0.101552255 -0.051504508
00000000: a6db 8cbb 09d8 ed3d 2589 2c3d 95eb 37bd
00000010: 7141 dd3c 2879 903d 3ac9 8e3b cdf4 803d
00000020: 5231 a6bb 45c5 733d 0697 52bd 9ccd ca3c
00000030: 6356 f93d a1f8 4d3d eafe 403d 3200 cf3d
00000040: 3fa8 013d b935 523d 4238 633d 2696 853d
00000050: 7d19 833d 6b58 b03d 034f 753d 7755 363d
00000060: 1a43 ea3d 98c3 bd3c 1391 9e3c d62c 7a3d
00000070: b276 a13d 1191 673d 9c09 913d f434 4ebc
00000080: 63c9 cf3d 445d 0cba d97a d03c cb08 bf3d
00000090: 09c9 61bb 487e ab3d 942f f53c fd5c 77bb
000000a0: 15f0 ca3d 08b9 4b3d f8a6 7d3d 0344 813d
000000b0: 65d5 573d 78a3 d43c aba5 d03d 2876 9cbd
000000c0: 98aa 233d 4452 983d adc2 5f3d 8e9e 753d
000000d0: 0bcf 21bd e858 f13d 7222 9bbd 0399 883d
000000e0: db95 aa3d 6402 d23d 7a56 6e3d 513b b73d
000000f0: 58ce 8c3d c878 223d a471 d33d 151c 863d
00000100: 740f a4bb 18a3 b43d ab08 e5bb ee64 e23c
00000110: ef07 9cbd 4f10 633d 221f 263d 5281 9e3c
00000120: 9c03 31bd 94c1 913b 066d 353d 4f5d 433d
00000130: 2bed 533c 149c 96bd 1d8f 793c dd3d 053d
00000140: 43ed 923d 58c8 cd3d 3b3b a63c 4e5f 8d3d
00000150: b9f6 91bd 3750 06bc 10f8 d23d 29e8 533d
00000160: f40a 813d 1ff2 be3c ae53 b5bc d356 c2bc
00000170: 718b ce3d abc0 be3d cbdb bc3d a697 fd3c
00000180: 755e 6b3d dbf9 1cb9 7166 283d c63b 78bd
00000190: ceb5 a9bc 07be 2e3d 053c ad3d 8b03 b73d
000001a0: b81f 5c3d a2b1 353d e6ce f63d a805 b23d
000001b0: e855 823b a38f 0bbd ca48 69bd 4ac5 08bc
000001c0: 2086 1b3d eb03 d83d 1dc2 94bd fdc8 cf3d
000001d0: ceac 793d 2d92 ca3d fecf 863d 21fd d53c
000001e0: f016 013d 5e70 a53c 3b56 753d 2e2f 8cbd
000001f0: f572 403d baaa b63d a5cf 64bd 3c01 963c
00000200: 785d 883c 4c60 8b3d e368 683d 0589 793d
00000210: 459a e03d 8822 bf3d 4b73 32bc cf37 a9ba
00000220: c69e 833d 3c2d da3d a668 e63c 15a9 7f3d
00000230: 162d f63c 8be0 ab3d 8a7c 7bbd 3b67 1a3d
00000240: 4b51 cd3d 5628 ce3d c9fe 933d 3056 67bc
00000250: 0bf8 c53c 1fb6 163d 406e d73d 2033 8f3d
00000260: 4cf1 5cbd 2d40 cd3d c160 ac3d 47d8 cfbb
00000270: 9746 86bd 8ebc e23d ce8a 00bd 4dcc 80bd
00000280: 39e8 e6bb a913 303d f04d 68bc 7ab3 923c
00000290: 7d03 9e3d 53e1 743d 19e9 e03d e027 60bd
000002a0: c880 243c dba5 a63d 0fa0 843c 9ef2 19bc
000002b0: cb37 c3bc 64d6 30bd b6e4 643d 8c39 96bb
000002c0: f558 4d3d 1008 b43d ed7b df3d e307 cc3d
000002d0: 3d14 863d 91f5 1b3c 5462 5abc b3cb 763c
000002e0: 1e3d fc3d 0681 7a3d dc4c ad3d 729f 4abb
000002f0: 95fc 72bd 166c 1a3d f490 a3bd 2bd8 d03c
00000300: 008f 783d b386 893d 488a b33d 14f5 ba3d
00000310: 4055 59ba a060 d23d 6a31 bc3d 1768 913d
00000320: 56c7 853d 0d0c 04bd 81f4 3d3d 1e45 453c
00000330: d97f 933d b554 b93d f8e6 4d3d 29b8 93bd
00000340: 71bf f93c ddcf 4fbd b7b8 5ebd 3a19 643d
00000350: 6685 293c 9ab2 82bd e3db d9bc 574b 85bd
00000360: b54c 903d 8910 013d 8c15 0b3c 434d 943d
00000370: bbbc e23d 94ae 11bd 0a56 aabb db01 c63a
00000380: 1f65 cebc 207a 7c3d 2bf9 9b3d cb38 8d3d
00000390: 7752 1f3d 8565 e13c 5f42 1e3d 65a7 893d
000003a0: b12a 493d 818f 603d bc71 483d 8e96 93bb
000003b0: eecc 9a3c 61cd 0c3d 6da5 83bd cdec 4bbd
000003c0: bb47 bb3d 3038 013d d33a 583c 5243 1f3a
000003d0: 69a1 483d bdca ee3d 9ddb bf3d 0539 953d
000003e0: f622 8b3d 7a79 9c3d c84b d33d ba43 f43d
000003f0: 4e6d c53d e097 fc3c a1fa cf3d 64f6 52bd

layer2.weight f4 [256, 256]
0.018510971 -0.021223566 -0.008571693 -0.043506756 -0.044223927 0.047140498 0.007262244 0.036237143
0.016260153 0.015599459 -0.0069993446 0.03490736 0.004745437 -0.028122896 0.010908537 -0.036159012
0.035139263 -0.035839245 0.013822444 -0.00059161417 0.004549169 0.005746854 -0.06304725 -0.022705317
-0.070379965 -0.016725393 -0.02611075 0.0071696164 -0.03603181 -0.03827103 0.00844618 -0.023651367
-0.054736093 -0.02865488 -0.04129894 -0.038679793 -0.014570137 -0.06614233 -0.050779227 0.0055411393
-0.045000367 0.008642005 0.0215109 0.019603582 -0.055835124 -0.06304636 -0.07294264 -0.032626938
-0.078303814 -0.011012029 -0.03361335 -0.042058874 -0.039955553 -0.02920854 0.025677301 -0.033215784
-0.03878674 -0.027625548 -0.07286832 -0.024501113 -0.060696557 -0.07421818 0.029222384 0.03186291
-0.034854542 -0.07396496 0.004942074 -0.07637626 0.05395674 -0.036407456 -0.002573103 -0.038064964
-0.017619336 -0.0038349754 -0.039081324 -0.01617424 0.012700129 -0.019085908 0.012107899 -0.013742604
0.014595122 0.009432926 -0.012039968 -0.0177984 -0.010860659 -0.054999746 -0.0067740693 0.009777897
0.0037114082 -0.04122333 0.020984914 0.009707771 -0.015609672 -0.005554937 -0.06362978 -0.0744844
-0.043109365 -0.064368226 0.008250034 0.051707447 -0.069687374 0.007820162 0.04002222 -0.037775397
0.0338317 -0.064560026 0.024200741 -0.0730205 -0.033249803 0.062206395 -0.009338699 0.0017083562
0.0030165333 0.015135372 0.04175652 0.041063268 0.0025446853 -0.07337645 0.045572396 -0.042257987
-0.07109829 -0.070903 -0.053705454 -0.010835879 -0.005694536 -0.004764702 0.044896368 0.036668967
-0.00081150804 -0.030429114 0.0043451716 -0.027908541 -0.036857024 -0.01701229 -0.054268666 0.014111915
-0.0136054 0.041170023 0.043426022 -0.035598155 -0.030946143 -0.05830336 -0.055924006 0.03257985
0.013005447 0.04539226 0.008767574 -0.051906478 -0.038135223 -0.059854865 0.02230665 0.015194925
-0.055853266 -0.0074717673 -0.07223677 -0.026169509 -0.01953917 -0.03937899 -0.014259459 0.05667381
0.045368094 -0.019440273 -0.00015897007 -0.014391551 0.03655252 -0.009423812 -0.05615578 0.02696982
-0.03604052 -0.030603642 -0.044160705 -0.009058808 0.015017194 -0.021766553 0.010409 -0.033040673
0.025388304 0.011023886 0.023142835 -0.032808654 0.043420453 -0.06652721 0.022488862 -0.05414588
0.032587968 0.033439 -0.0064990767 -0.06596457 0.048912928 0.0038982064 -0.057179794 -0.046170983
0.013332535 -0.01706765 -0.073143356 0.028464163 -0.0356676 -0.070729055 0.045608383 0.03020153
0.041678596 -0.04375284 -0.028455304 -0.009126396 -0.03076006 0.026344068 0.0045818514 0.012746185
0.008502113 -0.02922971 -0.06458337 -0.032485276 -0.040916182 -0.020375982 -0.021469705 0.012974635
-0.0066009816 -0.04993363 0.017937655 0.036297537 -0.024247497 0.062413096 -0.042055245 -0.06660895
0.005265008 -0.07500728 0.036101185 0.015614259 -0.046811737 0.04078325 -0.06940282 -0.01219608
-0.015639214 -0.0034923695 0.017950786 0.04610376 -0.029536419 0.03466567 0.033619173 0.0016685203
-0.03125409 -0.066745326 -0.018317329 -0.040611714 0.029854538 0.020873444 0.023074647 -0.021989051
-0.02762854 -0.023753805 -0.02908474 -0.05994612 0.042592566 -0.056997217 -0.022360485 -0.052138828
00000000: 52a4 973c 0bdd adbc 4970 0cbc 2434 32bd
00000010: 2624 35bd 6516 413d 1ef8 ed3b 666d 143d
00000020: 0334 853c e094 7f3c c25a e5bb 05fb 0e3d
00000030: 9c7f 9b3b fd61 e6bc b8b9 323c 791b 14bd
00000040: 30ee 0f3d 2ccc 12bd 8877 623c 8e16 1bba
00000050: 3211 953b 1b50 bc3b eb1e 81bd 8000 babc
00000060: 5f23 90bd b103 89bc 36e6 d5bc 1aef ea3b
00000070: 1796 13bd 15c2 1cbd d961 0a3c 83c0 c1bc
00000080: f432 60bd a4bd eabc 1429 29bd b46e 1ebd
00000090: 95b7 6ebc a175 87bd e1fd 4fbd 7292 b53b
000000a0: 4e52 38bd 3297 0d3c a137 b03c b197 a03c
000000b0: 5fb3 64bd 731e 81bd f362 95bd d3a3 05bd
000000c0: c05d a0bd cc6b 34bc 27ae 09bd ed45 2cbd
000000d0: 6fa8 23bd c046 efbc 3459 d23c 460d 08bd
000000e0: d8de 1ebd f94e e2bc fc3b 95bd 8fb6 c8bc
000000f0: f49c 78bd b3ff 97bd c863 ef3c af82 023d
00000100: a3c3 0ebd f17a 97bd 1ff1 a13b 286b 9cbd
00000110: be01 5d3d fc1f 15bd 81a1 28bb 02ea 1bbd
00000120: 6d56 90bc 3654 7bbb bd13 20bd d77f 84bc
00000130: 3414 503c 0d5a 9cbc 3660 463c a928 61bc
00000140: 6120 6f3c 8f8c 1a3c 4943 45bc f3cd 91bc
00000150: e8f0 31bc 6a47 61bd 03f9 ddbb 7933 203c
00000160: 193b 733b cbd9 28bd 8ee8 ab3c 580d 1f3c
00000170: b6bf 7fbc 3006 b6bb 5550 82bd 478b 98bd
00000180: 7293 30bd 7dd3 83bd 272b 073c 30cb 533d
00000190: 41b8 8ebd 2320 003c 57ee 233d 60ba 1abd
000001a0: 1c93 0a3d 0c38 84bd a240 c63c c68b 95bd
000001b0: f230 08bd 22cc 7e3d 5801 19bc ecea df3a
000001c0: 08b1 453b 5afa 773c e208 2b3d f531 283d
000001d0: bcc4 263b 6446 96bd 1faa 3a3d b616 2dbd
000001e0: fb9b 91bd 9835 91bd 40fa 5bbd f888 31bc
000001f0: 3b99 babb 3821 9cbb 41e5 373d 3332 163d
00000200: 62bb 54ba 7a46 f9bc f161 8e3b 74a0 e4bc
00000210: 64f7 16bd 5c5d 8bbc d248 5ebd a935 673c
00000220: 2fe9 5ebc e6a1 283d 7cdf 313d 5fcf 11bd
00000230: c482 fdbc 81cf 6ebd 9210 65bd 7372 053d
00000240: cc14 553c 3ced 393d dfa5 0f3c e39b 54bd
00000250: ae33 1cbd 602a 75bd 70bc b63c 22f4 783c
00000260: 65c6 64bd bad5 f4bb dff0 93bd 7061 d6bc
00000270: 9c10 a0bc dd4b 21bd 82a0 69bc cc22 683d
00000280: e5d3 393d 3541 9fbc 34b1 26b9 8aca 6bbc
00000290: 18b8 153d 5566 1abc 9a03 66bd d0ef dc3c
000002a0: 399f 13bd 7db4 fabc dbe1 34bd 656b 14bc
000002b0: ad0a 763c c54f b2bc 838a 2a3c a855 07bd
000002c0: 22fb cf3c 879d 343c 0b96 bd3c 5e62 06bd
000002d0: a5d9 313d 6b3f 88bd 903a b83c 12c8 5dbd
000002e0: f67a 053d 55f7 083d 35f6 d4bb 6f18 87bd
000002f0: ec58 483d 0d79 7f3b 5c35 6abd c91d 3dbd
00000300: b470 5a3c 75d1 8bbc 2fcc 95bd ad2d e93c
00000310: 3018 12bd 65da 90bd dbcf 3a3d 3369 f73c
00000320: 2db7 2a3d 2e36 33bd 191b e9bc e186 15bc
00000330: 85fc fbbc 84cf d73c 5b23 963b 60d5 503c
00000340: 724c 0b3c 2573 efbc 4944 84bd 480f 05bd
00000350: ba97 27bd 88eb a6bc 3ce1 afbc 9093 543c
00000360: 0c4d d8bb 3587 4cbd fdf1 923c baac 143d
00000370: b0a2 c6bc e0a4 7f3d 1f42 2cbd 466a 88bd
00000380: 1786 ac3b 6b9d 99bd d6de 133d f3d2 7f3c
00000390: aabd 3fbd 560c 273d 1123 8ebd 11d2 47bc
000003a0: cf1d 80bc 3de0 64bb 870d 933c 4cd7 3c3d
000003b0: 5cf6 f1bc 97fd 0d3d 42b4 093d 40b2 da3a
000003c0: 4a04 00bd c6b1 88bd 390e 96bc 7858 26bd
000003d0: 8191 f43c c9fe aa3c 0b07 bd3c 6222 b4bc
000003e0: 3f55 e2bc 5797 c2bc 1f43 eebc 108a 75bd
000003f0: 8b75 2e3d ea75 69bd 562d b7bc 868f 55bd

layer2.bias f4 [256]
0.03582473 -0.04059303 0.077697754 -0.0018438993 0.043477237 0.06748073 -0.0026491506 0.053537633
0.067730054 0.080402695 -0.0008267394 0.0633558 0.011082806 0.09759331 0.04099559 0.0017126907
-0.059498772 0.0742412 0.01647705 -0.01256853 -0.015944319 -0.04721066 -0.015097784 0.055471797
-0.05534722 0.062463585 0.022398701 -0.04177288 0.02253991 -0.027599199 0.023558917 0.02618722
0.05977017 0.084751 -0.060653273 0.056498695 0.010296188 0.084896296 -0.013164837 0.06932051
-0.063135795 0.011743644 0.003858202 -0.015777377 0.04758812 -0.06679821 -0.012718745 -0.005924732
0.026594143 -0.015561762 -0.0264535 0.0070111267 -0.012572841 0.025294252 -0.046446662 0.060195908
-0.038974933 -0.043960392 -0.004219586 -0.010526855 0.028826889 -0.015245237 -0.0036570434 0.09346383
-0.0008884696 -0.033190947 -0.00021172843 0.06809788 -0.058606166 0.027731394 -0.030239938 -0.016396202
-0.015599541 0.0041323793 0.055916276 -0.030560225 0.03209657 -0.0013174615 0.042147536 0.00798568
-0.063618176 -0.045412637 0.031675622 -0.015867786 -0.013203773 0.012532154 -0.037878893 -0.03912683
0.0022268826 -0.028693149 0.023302583 0.049603444 -0.028011069 0.045515265 0.026648464 0.034776956
0.035800003 0.059330903 0.055490367 0.022851462 -0.060764432 -0.008384737 -0.019651713 -0.026833113
0.047116306 0.031163504 0.04409064 0.032333706 -0.03024467 -0.033032387 0.04399854 0.038188014
0.037806142 0.044088244 0.055363115 -0.03020644 -0.022818698 0.046015788 -0.06439649 0.002222407
-0.059504345 0.020468665 0.07263361 0.040130857 -0.038890168 0.055494834 0.08166433 0.0020413424
0.041561775 0.03674984 -0.06116431 0.0015704919 0.0056968867 -0.03485007 0.05079489 -0.015299281
-0.06092009 0.06771192 -0.021244483 0.016521255 -0.04033965 0.06952719 0.023579782 0.0074865236
0.0871453 -0.045770615 -0.037505325 -0.0015738737 0.0805167 -0.06121362 0.07481302 0.028202169
0.04777831 0.033207797 0.020199826 0.027058583 -0.007789676 0.08211103 0.051132936 -0.042188823
0.06952986 0.04043692 0.050772686 -0.00035369367 0.008749065 0.025568284 -0.0029405446 0.0067283246
0.08450692 -0.018570093 0.081644714 -0.016697992 0.010396598 0.01338421 0.044334292 -0.01116096
0.07888906 0.0024259968 -0.013507709 -0.042796265 0.075303406 0.033205528 0.046625637 -0.04915721
-0.01176338 -0.051101074 -0.009084101 -0.043932084 -0.028915785 0.025268216 0.09763655 0.016126677
-0.009523181 0.018290622 0.024938677 0.07636067 -0.008966163 0.031581167 -0.01666171 -0.018846588
-0.056696024 0.07031787 0.03179963 0.08646559 0.025139065 0.0422807 0.06786122 -0.061462525
0.0063607623 0.017445778 0.08901078 -0.02777298 0.07035055 0.043935426 0.018489342 -0.047213763
-0.015418988 -0.055485204 -0.041056104 0.04942811 0.06682482 0.026212169 -0.014946367 -0.04514381
0.060639177 0.050465222 -0.00525242 -0.022356736 -0.04451219 0.075887114 0.033807375 0.05730367
0.0100310715 0.008492753 -0.029059775 -0.024177762 0.029539894 0.064795166 0.009778205 -0.06581625
0.08988908 -0.037967168 0.05267315 0.030067429 0.05398822 -0.0128493635 0.0143741695 0.054787368
0.07391671 0.009707786 -0.011426539 0.031697303 -0.066420995 0.06647754 0.012638094 -0.028412959
00000000: f4bc 123d e144 26bd 0020 9f3d feae f1ba
00000010: 3015 323d 5633 8a3d 5f9d 2dbb 474a 5b3d
00000020: 0eb6 8a3d 2baa a43d 8bb9 58ba b0c0 813d
00000030: a894 353c 00df c73d feea 273d 5d7c e03a
00000040: fcb4 73bd c50b 983d e1fa 863c 3cec 4dbc
00000050: a99d 82bc f75f 41bd b25c 77bc 6536 633d
00000060: c4b3 62bd d1d9 7f3d 7b7d b73c 0a1a 2bbd
00000070: 9ea5 b83c b717 e2bc a1fe c03c 9586 d63c
00000080: 91d1 743d ef91 ad3d 916f 78bd 2d6b 673d
00000090: 58b1 283c 1cde ad3d 54b1 57bc e9f7 8d3d
000000a0: 574d 81bd 6a68 403c e3d9 7c3b 8f3f 81bc
000000b0: c3eb 423d 80cd 88bd 4862 50bc 4124 c2bb
000000c0: f6db d93c c3f6 7ebc 03b5 d8bc 98bd e53b
000000d0: 51fe 4dbc e435 cf3c db3e 3ebd fc8f 763d
000000e0: 2ea4 1fbd d00f 34bd 7444 8abb d478 2cbc
000000f0: 5e26 ec3c 29c7 79bc 02ab 6fbb f769 bf3d
00000100: 30e8 68ba 3bf3 07bd 6b03 5eb9 e776 8b3d
00000110: 050d 70bd f32c e33c bfb9 f7bc 5451 86bc
00000120: 3895 7fbc e968 873b 7708 653d 7059 fabc
00000130: b177 033d acae acba e5a2 2c3d 5fd6 023c
00000140: 3f4a 82bd 9a02 3abd 4cbe 013d 29fd 81bc
00000150: a354 58bc aa53 4d3c e626 1bbd 7443 20bd
00000160: e4f0 113b e50d ebbc 0fe5 be3c fb2c 4b3d
00000170: 7877 e5bc 376e 3a3d e14d da3c 4872 0e3d
00000180: 06a3 123d f604 733d de49 633d fd32 bb3c
00000190: 20e4 78bd 2360 09bc a1fc a0bc 1ed1 dbbc
000001a0: 07fd 403d 9b4a ff3c 6398 343d 5970 043d
000001b0: acc3 f7bc f84c 07bd d037 343d 096b 1c3d
000001c0: 9dda 1a3d e095 343d 6fc4 623d 7f73 f7bc
000001d0: 47ee babc 0d7b 3c3d 4fe2 83bd cda5 113b
000001e0: d4ba 73bd e7ad a73c eec0 943d 4160 243d
000001f0: 4c4b 1fbd 8d4e 633d a13f a73d 0bc8 053b
00000200: ae3c 2a3d 0087 163d 6d87 7abd f7d8 cd3a
00000210: f3ac ba3b f2be 0ebd 4d0e 503d d6a9 7abc
00000220: 5887 79bd 8cac 8a3d e908 aebc 9557 873c
00000230: 303b 25bd 4564 8e3d 632a c13c 8351 f53b
00000240: 3c79 b23d f879 3bbd 2f9f 19bd 704a ceba
00000250: f1e5 a43d 22bb 7abd 9237 993d 3c08 e73c
00000260: 30b3 433d e604 083d 1b7a a53c f6a9 dd3c
00000270: 8a40 ffbb d429 a83d c570 513d 30ce 2cbd
00000280: ac65 8e3d 2fa1 253d 05f7 4f3d f66f b9b9
00000290: 3d58 0f3c 9474 d13c 27b6 40bb 4779 dc3b
000002a0: f711 ad3d 4f20 98bc 5835 a73d 3aca 88bc
000002b0: 7e56 2a3c 7249 5b3c e097 353d 76dc 36bc
000002c0: 9690 a13d 79fd 1e3b 704f 5dbc 234b 2fbd
000002d0: ac38 9a3d 8502 083d 86fa 3e3d 1259 49bd
000002e0: 31bb 40bc 5c4f 51bd 7bd5 14bc 21f2 33bd
000002f0: cce0 ecbc 4aff ce3c acf5 c73d 181c 843c
00000300: 1e07 1cbc 37d6 953c 324c cc3c fc62 9c3d
00000310: d0e6 12bc 415b 013d 237e 88bc 2964 9abc
00000320: 173a 68bd d102 903d 5440 023d df14 b13d
00000330: 71f0 cd3c 872e 2d3d d3fa 8a3d 21c0 7bbd
00000340: f16d d03b 73ea 8e3c 494b b63d 2984 e3bc
00000350: f313 903d a2f5 333d f676 973c 3863 41bd
00000360: ec9f 7cbc 7444 63bd 722a 28bd 2175 4a3d
00000370: 74db 883d e7ba d63c 9be1 74bc b7e8 38bd
00000380: c960 783d 9fb4 4e3d 7e1c acbb 7925 b7bc
00000390: 6a52 36bd b46a 9b3d 9a79 0a3d 41b7 6a3d
000003a0: 5d59 243c 3025 0b3c c40e eebc 7110 c6bc
000003b0: a6fd f13c 54b3 843d c434 203c acca 86bd
000003c0: c417 b83d 7683 1bbd cdbf 573d f84f f63c
000003d0: c022 5d3d 2386 52bc a381 6b3c b868 603d
000003e0: a561 973d 680d 1f3c 6136 3bbc 08d5 013d
000003f0: bb07 88bd 6025 883d 0210 4f3c 4bc2 e8bc

layer3.weight f4 [3, 256]
0.046121556 0.017749136 0.0067019626 -0.044718605 0.028508931 -0.10677875 0.010859419 -0.099840894
-0.099208154 -0.09491688 -0.08763357 -0.031834096 -0.060011774 -0.0540212 -0.0074355225 -0.011930741
0.025237866 -0.095726274 -0.0073056663 -0.09250632 -0.05683196 -0.012028169 -0.092950426 -0.10187712
0.04813809 -0.058871806 0.024569618 0.01882899 -0.07319434 0.012814205 -0.017874625 0.04644979
-0.08952817 0.00060793525 0.037686992 -0.09351188 -0.057881664 -0.09777683 0.0451442 0.029012691
0.04598078 0.018862253 -0.018840449 0.051282946 -0.08832952 0.033459585 0.03331727 -0.07231937
-0.10542793 0.025454316 -0.06743856 0.034685984 -0.0290508 -0.033348642 -0.035979964 -0.056426466
0.047074605 0.04961359 -0.038089853 -0.0941444 -0.021077449 -0.07312374 -0.017937003 -0.09430144
-0.0395068 -0.02831644 -0.021718146 -0.011756585 -0.0041266233 -0.08275457 -0.027753202 -0.03943154
-0.09297108 -0.0709955 -0.101235546 -0.07315106 -0.013700063 -0.027049707 -0.094425626 -0.03691949
0.010227608 -0.026736457 -0.08301847 0.049935095 -0.07755806 0.003832776 -0.01338789 -0.035629995
-0.04103532 -0.05431167 -0.06635628 0.020288784 -0.040927786 -0.008503886 -0.07950076 0.01988781
-0.021726409 -0.05226679 -0.05554013 0.038145244 -0.025464058 -0.020079887 0.005684155 0.0031144214
0.0070080864 0.037044935 0.017520634 0.0028370875 -0.05116162 0.037183534 0.033277046 -0.04166799
0.033997957 0.0028958556 -0.03876977 0.013452522 -0.09822256 -0.065945014 -0.034782287 0.029295659
-0.05720949 -0.028405486 -0.042350437 0.030904384 -0.047940895 -0.05659717 -0.09255351 0.047949594
-0.022811241 0.010445776 -0.053986616 0.03795881 -0.085529685 -0.104093626 -0.060484696 -0.07395114
-0.006839391 -0.018860834 -0.00087318616 -0.04759147 -0.00793121 -0.107516095 -0.076741666 -0.062193785
-0.062174037 0.023797264 0.004410638 -0.025884885 -0.1032948 0.029844746 -0.07146095 -0.06810928
-0.0250664 -0.09068377 -0.004906785 -0.032920048 -0.066350915 -0.080102906 -0.0371507 0.029974584
-0.06724451 0.019248968 -0.08379995 -0.046974853 0.045847073 -0.01567372 -0.09658203 0.005755024
-0.08096219 0.042303104 -0.07573017 -0.09540873 -0.10588847 -0.051471636 0.008842936 0.03434761
0.004825709 -0.04269889 -0.0066347136 -0.03379121 0.010900286 -0.060646158 -0.09071446 -0.016111683
0.008438891 0.016709141 0.03075705 0.043683205 0.035638288 -0.0015596007 -0.049677532 -0.021531438
0.015101807 0.005836864 -0.113613464 0.0020954357 -0.0095905 -0.07480148 -0.022333302 -0.08199517
0.039872803 -0.018772673 -0.011470614 -0.07829991 -0.061404504 -0.106530525 -0.06990596 -0.02547415
0.011185671 -0.045262694 -0.08308209 0.014067429 -0.095140785 -0.06278753 -0.0842245 0.004289985
0.026552152 -0.032900766 0.0008716066 -0.0670574 -0.09790109 -0.10071545 -0.06758212 -0.015992125
0.013161152 -0.05819018 -0.018017787 -0.068130545 -0.047109347 -0.040666915 0.029978663 0.0016257664
0.047887303 -0.024415525 -0.03683528 -0.02967699 -0.054412253 -0.050283507 -0.10202921 -0.04667799
-0.012665159 -0.096356764 -0.09490967 -0.093442686 -0.014602599 -0.042640403 0.0053969347 -0.09676974
-0.06764202 -0.10556824 -0.0060569304 -0.0024555915 0.05470315 -0.051203247 -0.052849762 -0.050044645
00000000: f5e9 3c3d a366 913c 239c db3b db2a 37bd
00000010: 908b e93c d1ae dabd b4eb 313c 6279 ccbd
00000020: a52d cbbd c863 c2bd 3b79 b3bd 7864 02bd
00000030: e8ce 75bd 5545 5dbd afa5 f3bb 2879 43bc
00000040: a4bf ce3c 230c c4bd 5f64 efbb f473 bdbd
00000050: a1c8 68bd cc11 45bc cb5c bebd f4a4 d0bd
00000060: 722c 453d 9023 71bd 3946 c93c 413f 9a3c
00000070: eae6 95bd acf2 513c ce6d 92bc 2342 3e3d
00000080: 8c5a b7bd d85d 1f3a ad5d 1a3d 2883 bfbd
00000090: 5315 6dbd 383f c8bd 20e9 383d 06ac ed3c
000000a0: 5856 3c3d 0385 9a3c 4957 9abc 110e 523d
000000b0: 1be6 b4bd eb0c 093d b177 083d 2e1c 94bd
000000c0: 99ea d7bd 9285 d03c 3a1d 8abd e412 0e3d
000000d0: f1fb edbc 9698 08bd ba5f 13bd 701f 67bd
000000e0: 4dd1 403d 9f37 4b3d 1b04 1cbd c7ce c0bd
000000f0: 9daa acbc e6c1 95bd 9ff0 92bc 1d21 c1bd
00000100: e2d1 21bd e1f7 e7bc 41ea b1bc b19e 40bc
00000110: a038 87bb 3a7b a9bd af5a e3bc f782 21bd
00000120: 9f67 bebd 1766 91bd 9554 cfbd 39d0 95bd
00000130: 3b76 60bc 5997 ddbc 3962 c1bd e438 17bd
00000140: b291 273c 6a06 dbbc 9605 aabd be88 4c3d
00000150: c3d6 9ebd 502f 7b3b e158 5bbc c2f0 11bd
00000160: a714 28bd ea75 5ebd cde5 87bd aa34 a63c
00000170: e5a3 27bd e253 0bbc 4bd1 a2bd c3eb a23c
00000180: 95fb b1bc b415 56bd 0c7e 63bd 303e 1c3d
00000190: 009a d0bc 937e a4bc 2642 ba3b 521b 4c3b
000001a0: 17a4 e53b 6ebc 173d 6f87 8f3c 6eee 393b
000001b0: d98e 51bd c34d 183d 834d 083d 0eac 2abd
000001c0: 7141 0b3d 65c8 3d3b 0dcd 1ebd f867 5c3c
000001d0: e928 c9bd 2e0e 87bd df77 0ebd 73fd ef3c
000001e0: 8054 6abd 9fb2 e8bc a777 2dbd 312b fd3c
000001f0: ac5d 44bd 6fd2 67bd b28c bdbd cb66 443d
00000200: a4de babc c324 2b3c 1221 5dbd b27a 1b3d
00000210: 302a afbd 0a2f d5bd cdbe 77bd b273 97bd
00000220: f81c e0bb 0982 9abc 88e6 64ba 46ef 42bd
00000230: e8f1 01bc 6631 dcbd bc2a 9dbd e9be 7ebd
00000240: 34aa 7ebd 7bf2 c23c 1d87 903b 8a0c d4bc
00000250: 398c d3bd f87c f43c 1e5a 92bd e17c 8bbd
00000260: 0d58 cdbc 6ab8 b9bd 19c9 a0bb 2cd7 06bd
00000270: fde2 87bd fe0c a4bd 552b 18bd 428d f53c
00000280: 7db7 89bd 03b0 9d3c 4f9f abbd b468 40bd
00000290: 24ca 3b3d 2c66 80bc cdcc c5bd a494 bc3b
000002a0: 81cf a5bd 0546 2d3d 6b18 9bbd a765 c3bd
000002b0: 0edc d8bd ecd3 52bd f6e1 103c 14b0 0c3d
000002c0: fb20 9e3b 08e5 2ebd 0368 d9bb a768 0abd
000002d0: 1d97 323c 1b68 78bd 81c8 b9bd a6fc 83bc
000002e0: 4643 0a3c 9ce1 883c 35f6 fb3c 29ed 323d
000002f0: 74f9 113d 846b ccba ab7a 4bbd b362 b0bc
00000300: 926d 773c 2a43 bf3b 2dae e8bd 9453 093b
00000310: 7921 1dbc 8531 99bd 54f4 b6bc 15ed a7bd
00000320: aa51 233d 26c9 99bc 3eef 3bbc b45b a0bd
00000330: 4a83 7bbd ad2c dabd db2a 8fbd 2aaf d0bc
00000340: 1b44 373c 6065 39bd f126 aabd 137b 663c
00000350: 2cd9 c2bd c096 80bd e57d acbd 0193 8c3b
00000360: e683 d93c f4c2 06bd 877c 643a 6455 89bd
00000370: 5e80 c8bd e743 cebd 7f68 8abd eb01 83bc
00000380: dfa1 573c d458 6ebd 0a9a 93bc 0788 8bbd
00000390: bbf5 40bd 5a92 26bd d095 f53c ab17 d53a
000003a0: 7a25 443d 1103 c8bc 97e0 16bd 291d f3bc
000003b0: 62df 5ebd 14f6 4dbd b1f4 d0bd 6c31 3fbd
000003c0: 8781 4fbc b256 c5bd 0060 c2bd e15e bfbd
000003d0: bd3f 6fbc b4a7 2ebd c5d8 b03b 372f c6bd
000003e0: e687 8abd 2934 d8bd 3779 c6bb fded 20bb
000003f0: 6910 603d 7fba 51bd fe78 58bd 9dfb 4cbd

layer3.bias f4 [3]
-0.030067496 0.055370484 -0.015176977
00000000: 1c50 f6bc 29cc 623d dba8 78bc
